assets/modelForSentimentAnalysis.tflite (tflite, 233600 bytes, 21 tensors)

sequential/bidirectional_1/backward_lstm_1/Read_2/ReadVariableOp f4 [128]
0	0xbe10fb94	-0.1415847
1	0xbd856f82	-0.06515409
2	0xbd750f7b	-0.059829216
3	0xbdb749af	-0.08949601
4	0xbe76226e	-0.24036571
5	0xbde509a8	-0.111834824
6	0xbd994a1c	-0.07484838
7	0xbd8ed855	-0.06974856
8	0xbd5b6dba	-0.05357144
9	0xbe2bd37a	-0.1677989
10	0xbd8688e0	-0.065690756
11	0xbdbc4701	-0.091932304
12	0xbcd94b3e	-0.026525136
13	0xbc5252e4	-0.0128371455
14	0xbd4b9db3	-0.04971094
15	0x3d8c9083	0.06863501
16	0xbd764aba	-0.06012986
17	0xbd84c0ed	-0.0648211
18	0x3d6f3682	0.058401592
19	0xbd5dbe10	-0.054136336
20	0xbd977bd2	-0.07396664
21	0xbd123d64	-0.035703078
22	0x3cb36b81	0.021901848
23	0xbce55588	-0.027994886
24	0xbdaa7f35	-0.08325044
25	0xbdda8017	-0.106689624
26	0xbd4b8dda	-0.049695827
27	0xbd6833ab	-0.0566899
28	0xbe68e7ea	-0.22744718
29	0xbe29749f	-0.16548394
30	0xbd9946e8	-0.074842274
31	0xbd3866ac	-0.04501979
32	0x3f5c6de5	0.86105186
33	0x3f75ebd5	0.96062976
34	0x3f793be5	0.97357017
35	0x3f79d729	0.97593933
36	0x3f434088	0.7627034
37	0x3f677892	0.9041835
38	0x3f7ecd33	0.9953186
39	0x3f7df78d	0.9920586
40	0x3f73b81f	0.9520282
41	0x3f5432ee	0.8289021
42	0x3f70f075	0.9411691
43	0x3f769372	0.96318734
44	0x3f75ec49	0.9606367
45	0x3f87a836	1.0598209
46	0x3f765b22	0.9623281
47	0x3f85c0c4	1.0449452
48	0x3f74224a	0.9536482
49	0x3f669b60	0.90080833
50	0x3f846390	1.0342884
51	0x3f7c93d5	0.98663074
52	0x3f69f9f3	0.9139702
53	0x3f83a810	1.0285664
54	0x3f76edae	0.9645642
55	0x3f77031f	0.9648914
56	0x3f78d054	0.97192883
57	0x3f61217c	0.8794172
58	0x3f6d9f37	0.9282107
59	0x3f81ad32	1.013098
60	0x3f5c8507	0.86140484
61	0x3f529fa1	0.82274824
62	0x3f7eb61a	0.99496615
63	0x3f77e6fc	0.9683683
64	0xbc71e71e	-0.014764575
65	0x3ba99b40	0.005175978
66	0xbca429ca	-0.020039458
67	0xbbfcf6cd	-0.0077198506
68	0xbc1ba250	-0.009499148
69	0x3c056a3c	0.008143004
70	0xb9e77eb8	-0.00044154166
71	0xbb81f0dd	-0.0039654807
72	0xbb110725	-0.0022129503
73	0xbcd1efe5	-0.025627086
74	0x3d0c4986	0.034249805
75	0x3c1775c0	0.009244382
76	0x3ca068cc	0.019581221
77	0x3b3c4f2d	0.0028733716
78	0x39b72590	0.00034932466
79	0x3c1763e5	0.009240125
80	0xbc9553d4	-0.018228449
81	0xb9321596	-0.00016983444
82	0xba5547c2	-0.0008135998
83	0x3c32c44a	0.010911057
84	0xbb04274c	-0.0020165024
85	0xbc1ffb01	-0.009764434
86	0xbae8412e	-0.001771962
87	0xbc852d63	-0.016256994
88	0xbc0ce7a0	-0.008600146
89	0xbc401763	-0.011724326
90	0xbbed4102	-0.0072404156
91	0x3b90e17d	0.0044214115
92	0xbbe4c419	-0.0069813845
93	0xbc48ab9c	-0.012247946
94	0xbbd6bdbb	-0.0065533794
95	0xbbedf1f6	-0.00726151
96	0xbe1114e8	-0.14168131
97	0xbd847a7e	-0.06468676
98	0xbd77fba3	-0.060542714
99	0xbdb7f7db	-0.089828216
100	0xbe7568ec	-0.23965806
101	0xbde76614	-0.11298767
102	0xbd9df97c	-0.07713601
103	0xbd8ff672	-0.070294276
104	0xbd5c6b0a	-0.053813018
105	0xbe2a8e84	-0.16655928
106	0xbd84e6b8	-0.064893186
107	0xbdbd7acf	-0.092519395
108	0xbcd91569	-0.026499467
109	0xbc7c8b9d	-0.015414146
110	0xbd4e44b3	-0.050358485
111	0x3d8a647b	0.067574464
112	0xbd7928d7	-0.060829964
113	0xbd8443cb	-0.06458243
114	0x3d6b22c4	0.057406202
115	0xbd6408a5	-0.055672307
116	0xbd99f5e2	-0.075176015
117	0xbd16a232	-0.036775775
118	0x3cb3df50	0.02195707
119	0xbcf2287d	-0.029560322
120	0xbdac20ec	-0.08404717
121	0xbddac8d7	-0.106828384
122	0xbd4486c0	-0.04798007
123	0xbd6b7552	-0.057484932
124	0xbe67b457	-0.22627388
125	0xbe27050e	-0.16310522
126	0xbd9988b9	-0.07496781
127	0xbd3ac219	-0.045595262

sequential/bidirectional_1/forward_lstm_1/Read_2/ReadVariableOp f4 [128]
0	0xbdb7f7b1	-0.0898279
1	0xbd389b97	-0.045070257
2	0xbdba41dc	-0.09094593
3	0xbddff57e	-0.10935496
4	0xbdd83907	-0.10557752
5	0xbdf17335	-0.11789552
6	0xbd933972	-0.07188691
7	0xbdcecf93	-0.100981854
8	0xbdae3634	-0.08506432
9	0xbe0e14bb	-0.13875096
10	0xbe318c86	-0.17338762
11	0xbde6850c	-0.112558454
12	0xbe3498f4	-0.17636472
13	0xbd19f530	-0.037587345
14	0xbdbe409f	-0.09289669
15	0x3d7a109e	0.061051004
16	0x3c9210ec	0.017830335
17	0xbe11a5aa	-0.14223352
18	0xbde3cfd1	-0.11123622
19	0xbcdfaa1a	-0.02730279
20	0xbd8f0d23	-0.069849275
21	0xbce3fcdb	-0.027830532
22	0xbddb7d32	-0.107172385
23	0xbe2fc2bd	-0.1716413
24	0xbdf95686	-0.12174706
25	0x3cda515c	0.026650123
26	0xbdd4f06c	-0.10397419
27	0xbc24c13b	-0.010055835
28	0xbd9e09f3	-0.077167414
29	0xbe3bc208	-0.18335736
30	0xbdde102c	-0.10842928
31	0xbdcd4e6f	-0.10024726
32	0x3f5f0fb5	0.8713334
33	0x3f74e29b	0.9565827
34	0x3f7854e1	0.97004515
35	0x3f7e5f11	0.9936381
36	0x3f7aa2d7	0.97904724
37	0x3f7c9a03	0.98672503
38	0x3f8163ae	1.0108545
39	0x3f67bad7	0.9051947
40	0x3f7e1e15	0.9926465
41	0x3f620395	0.88286716
42	0x3f65ce7b	0.8976819
43	0x3f7b7316	0.9822248
44	0x3f43366e	0.7625493
45	0x3f85b26f	1.0445079
46	0x3f75e8e3	0.9605848
47	0x3f858140	1.0430069
48	0x3f915747	1.135476
49	0x3f7382d1	0.95121485
50	0x3f815e02	1.0106814
51	0x3f8ec4c0	1.1153793
52	0x3f831ea8	1.024373
53	0x3f80bd88	1.005784
54	0x3f7c5057	0.9856009
55	0x3f5e4e33	0.8683807
56	0x3f640a0f	0.8907785
57	0x3f82af36	1.020972
58	0x3f7601bc	0.96096396
59	0x3f941a9e	1.1570623
60	0x3f843b3d	1.0330578
61	0x3f57cc67	0.8429627
62	0x3f76dbcd	0.9642914
63	0x3f7cf116	0.9880537
64	0xbc438282	-0.011932971
65	0x3c9cb019	0.019126939
66	0x3c84f55e	0.016230281
67	0xba4bd991	-0.00077762554
68	0xbd09b23b	-0.03361724
69	0x3cdc3d60	0.026884735
70	0xba880547	-0.0010377549
71	0x3c062807	0.008188254
72	0xbc360448	-0.011109419
73	0x3bb85558	0.005625408
74	0xbc13e611	-0.00902702
75	0x3c9306c0	0.017947555
76	0xbcbdb1a5	-0.023155997
77	0x3cd692f3	0.026193118
78	0x3c6a440e	0.014298452
79	0x3c96d216	0.018410724
80	0xbcd49a0e	-0.025952365
81	0xbc3f7c5b	-0.0116873635
82	0xbd0eae5c	-0.03483425
83	0xbcaa024b	-0.020753046
84	0x3c607409	0.01369954
85	0xbaca0e17	-0.0015415576
86	0xbc8448d9	-0.016148018
87	0x3ba46901	0.0050174003
88	0xbcaf5489	-0.021402614
89	0xbc080e25	-0.008304154
90	0xbc14d82c	-0.0090847425
91	0xbc8f5842	-0.01749814
92	0xbc39768f	-0.0113197705
93	0x3af76272	0.0018873943
94	0xbc7ee8a5	-0.0155583965
95	0x3cbf3761	0.023341836
96	0xbdc52cdb	-0.09627696
97	0xbd3d526d	-0.046221185
98	0xbda92870	-0.08259666
99	0xbde7a21e	-0.11310218
100	0xbdd56907	-0.10420423
101	0xbdff7e24	-0.12475231
102	0xbd937704	-0.07200435
103	0xbdce0921	-0.10060335
104	0xbdabba86	-0.08385186
105	0xbe0e8416	-0.13917574
106	0xbe326d14	-0.17424423
107	0xbdfa1575	-0.12211124
108	0xbe357e68	-0.17724001
109	0xbd03acb1	-0.032147113
110	0xbdc5918d	-0.09646902
111	0x3d6c0ebc	0.05763124
112	0x3c89dfe9	0.016830401
113	0xbe1698c8	-0.14706719
114	0xbdd617e0	-0.104537725
115	0xbbdec8aa	-0.0067988234
116	0xbd86597d	-0.06560037
117	0xbcf95407	-0.030435575
118	0xbde1c8be	-0.11024617
119	0xbe33ee96	-0.17571482
120	0xbdfb80a9	-0.12280399
121	0x3ce6f519	0.028193044
122	0xbdc6b3ce	-0.09702264
123	0x3ca23204	0.01979924
124	0xbda26089	-0.07928569
125	0xbe3a08f2	-0.18167475
126	0xbde5413e	-0.111940846
127	0xbdc9226b	-0.09821018

sequential/bidirectional/backward_lstm/Read_2/ReadVariableOp f4 [64]
0	0x3dd8851d	0.10572264
1	0x3e04f2e3	0.12983279
2	0x3d4c4f3c	0.04988025
3	0x3cf016b8	0.029307708
4	0x3e2a3c8a	0.16624656
5	0xbbaed1be	-0.005335062
6	0x3d2f56a3	0.042807233
7	0x3d8aabe6	0.06771068
8	0x3cf94186	0.030426752
9	0x3d93c635	0.07215539
10	0x3ca783dc	0.020448618
11	0x3db160ae	0.08661018
12	0x3d370242	0.044679888
13	0x3d70fb3e	0.058833353
14	0xbc5a356c	-0.013318401
15	0x3e3e2439	0.18568505
16	0x3f817f59	1.0116988
17	0x3f7f4104	0.9970858
18	0x3f81c503	1.0138248
19	0x3f8435f7	1.0328969
20	0x3f89ecf3	1.0775436
21	0x3f78959e	0.971033
22	0x3f8990a4	1.0747266
23	0x3f87cf5e	1.0610158
24	0x3f7c0e64	0.9845946
25	0x3f88a6c8	1.0675898
26	0x3f761bdf	0.9613628
27	0x3f8e6c5e	1.1126821
28	0x3f8283c4	1.0196462
29	0x3f75f9e2	0.96084416
30	0x3f83516f	1.0259227
31	0x3f8b39f8	1.0877066
32	0x3baa9718	0.005206
33	0xba7cae65	-0.0009639024
34	0x3b89ce6c	0.0042055156
35	0x3bc07cab	0.0058742366
36	0xbbe44e49	-0.00696734
37	0x3bc38a52	0.005967417
38	0x3c05b0f0	0.008159861
39	0xbc03cea5	-0.008044873
40	0x3b56ae5b	0.0032757733
41	0x3b5339d3	0.003223051
42	0xbc00d369	-0.007862904
43	0x3b692f44	0.003558115
44	0x3c1fd81a	0.0097561125
45	0x3c0de6f6	0.008661022
46	0xbc257426	-0.010098493
47	0xbaa21bc7	-0.0012367897
48	0x3dcde045	0.10052542
49	0x3e0434f8	0.12910831
50	0x3d5d4951	0.054024998
51	0x3cf3bc75	0.02975295
52	0x3e21d028	0.15802062
53	0xbbb41002	-0.0054950723
54	0x3d2d94ba	0.042378165
55	0x3d8e625b	0.069523536
56	0x3cdec1c3	0.027192002
57	0x3d99bd76	0.0750684
58	0x3c9f3181	0.019432785
59	0x3dafbb71	0.085806735
60	0x3d38adef	0.04508775
61	0x3d851d20	0.06499696
62	0xbc7774ca	-0.015103528
63	0x3e3e2567	0.18568955

sequential/bidirectional/forward_lstm/Read_2/ReadVariableOp f4 [64]
0	0x3c064d27	0.0081971055
1	0xbd74a98a	-0.059731998
2	0x3c5dcc4e	0.01353748
3	0xbd6273a6	-0.055286072
4	0xbcebdb15	-0.02879099
5	0xbd81dbf8	-0.06340784
6	0x3ce997bd	0.028514737
7	0x3da87960	0.082262754
8	0xbd03fc9a	-0.03222332
9	0xbc99a888	-0.01875712
10	0x3c88eefd	0.016715521
11	0x3c5334c3	0.012890997
12	0x3d5aed93	0.053449225
13	0xbc7d7526	-0.015469825
14	0xbc8019e4	-0.015637346
15	0x3d3ddb70	0.04635185
16	0x3f87a4a1	1.0597116
17	0x3f78e1e9	0.9721971
18	0x3f8a7a1a	1.0818512
19	0x3f8b20dd	1.0869404
20	0x3f87746d	1.0582405
21	0x3f7c1cc1	0.98481375
22	0x3f7c2aa5	0.9850257
23	0x3f8eb3b1	1.1148587
24	0x3f8200c9	1.015649
25	0x3f8852f6	1.0650318
26	0x3f8a5bb2	1.0809233
27	0x3f896961	1.0735284
28	0x3f8fc06f	1.1230601
29	0x3f860efd	1.0473324
30	0x3f84ee8c	1.0385299
31	0x3f8e31ce	1.1108949
32	0xbb078c3d	-0.0020682954
33	0xbb919bf1	-0.0044436385
34	0x3a905c41	0.0011013822
35	0xbb90afde	-0.0044154963
36	0x3b3a15ac	0.0028394265
37	0x3b9852a5	0.004648524
38	0xbc2a28ad	-0.010385674
39	0xbb0d2b17	-0.0021540576
40	0xbb892de3	-0.0041863783
41	0x3c13a63e	0.009011803
42	0xbb73dbe2	-0.0037209918
43	0xbc30a6c2	-0.010781946
44	0xbc167e8f	-0.009185447
45	0xbbd587d2	-0.006516435
46	0xbba00691	-0.0048835953
47	0x3c4da25f	0.012550919
48	0x38b59280	8.65804e-05
49	0xbd7a0a46	-0.061044954
50	0x3c8f4b42	0.01749194
51	0xbd652fa7	-0.055953648
52	0xbcef47c8	-0.029209033
53	0xbd862548	-0.065500796
54	0x3cfcef0c	0.030875705
55	0x3d979a50	0.0740248
56	0xbd07e41a	-0.03317652
57	0xbc81add9	-0.015829967
58	0x3c41add1	0.011821226
59	0x3c531ad6	0.012884816
60	0x3d34da71	0.044153634
61	0xbc8a7fe7	-0.016906692
62	0xbc7dbd08	-0.015486963
63	0x3d0ed3d2	0.034869976

sequential/dense_1/BiasAdd/ReadVariableOp f4 [5]
0	0xbe4ad413	-0.19807462
1	0x3cc7e224	0.024399824
2	0xbc4f51da	-0.012653792
3	0x3d8058e8	0.062669575
4	0x3d372587	0.044713523

sequential/dense/MatMul;sequential/dense/Relu;sequential/dense/BiasAdd f4 [256]
0	0x3e247a95	0.16062386
1	0xbec35cbd	-0.3815669
2	0x3cf05206	0.029335987
3	0x3f10f957	0.5663046
4	0xbf0d16f3	-0.5511314
5	0xbeee02a1	-0.4648638
6	0xbed80e47	-0.42198393
7	0xbef108ec	-0.4707712
8	0x3f034f2f	0.512927
9	0x3f4304af	0.7617902
10	0x3e0113d6	0.12605223
11	0x3d5bd2f4	0.053667977
12	0x3e9ef165	0.31043544
13	0x3c30d6c0	0.010793388
14	0x3f19f771	0.6014319
15	0xbf4d17da	-0.8011452
16	0x3eb71987	0.35761663
17	0x3ed686ee	0.41899818
18	0xbe5884bf	-0.21144389
19	0xbefab76a	-0.4896806
20	0x3f1a802d	0.6035183
21	0xbf7c88eb	-0.9864642
22	0x3ebe90e9	0.37219933
23	0xbedbc6a9	-0.42925003
24	0x3c5d4730	0.013505742
25	0x3eede9b0	0.46467352
26	0x3e8cd0f8	0.2750318
27	0x3f475bc3	0.7787439
28	0x3dc4a1a2	0.096011415
29	0x3f41f69d	0.75766927
30	0x3e38e829	0.18057312
31	0x3f24c685	0.64365417
32	0xbda44a82	-0.08022024
33	0xbe085842	-0.13314918
34	0x3f787595	0.97054416
35	0x3ec0fc0f	0.37692305
36	0xbde20046	-0.110352084
37	0x3e8e099d	0.2774171
38	0xbedd8e69	-0.43272713
39	0xbeea2798	-0.45733333
40	0xbcaf4602	-0.021395687
41	0xbecee7d9	-0.4041126
42	0xbf28174c	-0.6566055
43	0x3d3b89f0	0.045785844
44	0x3d0971e8	0.033555895
45	0xbf0aacec	-0.5417011
46	0xbedc83a7	-0.43069193
47	0xbeabc64d	-0.3354973
48	0x3eb5269a	0.35381013
49	0x3f5b0e45	0.8556865
50	0x3d0b8cc3	0.034069788
51	0xbe35f06b	-0.17767493
52	0xbf516293	-0.8179104
53	0xbf085af7	-0.532638
54	0x3ed8400c	0.42236364
55	0xbdc68b6e	-0.09694563
56	0x3e3f24d0	0.18666387
57	0x3f2d6a8c	0.677407
58	0x3ec8f10a	0.39246398
59	0xbf51c952	-0.81947815
60	0xbf0d0b83	-0.5509569
61	0x3e77389d	0.2414269
62	0xbf2fe1b4	-0.6870377
63	0x3f009a57	0.50235504
64	0xbebf2750	-0.3733468
65	0xbf57b408	-0.8425908
66	0x3c294423	0.0103311865
67	0x3eb43334	0.35195315
68	0xbe94b4e9	-0.29044273
69	0xbe957880	-0.29193497
70	0xbe0cd668	-0.13753664
71	0x3ea86483	0.32889184
72	0xbe4c3bd0	-0.19944692
73	0xbe3a12f5	-0.18171294
74	0xbe9deeb2	-0.30846173
75	0x3f25bfb2	0.6474563
76	0xbbe43ee7	-0.0069655064
77	0xbef87005	-0.48522964
78	0xbe8b4ec3	-0.27208528
79	0xbe027cbc	-0.12742895
80	0x3e85e07c	0.2614783
81	0xbe6f429c	-0.23365253
82	0xbdd766f4	-0.105176836
83	0x3f363b21	0.71183974
84	0xbeab905b	-0.33508572
85	0xbe65a2c8	-0.22425377
86	0xbf2a7a0c	-0.6659248
87	0xbf21209d	-0.6294039
88	0x3ea2dd27	0.3180935
89	0x3f68283c	0.9068639
90	0xbf109b3b	-0.5648686
91	0xbf0bffab	-0.54686993
92	0x3e2e4e34	0.1702202
93	0xbc88d715	-0.016704122
94	0xbde73975	-0.11290256
95	0x3f588d8b	0.8459098
96	0x3d994005	0.07482914
97	0xbed68af4	-0.41902888
98	0x3f3067ba	0.68908274
99	0x3e59b2c0	0.21259594
100	0x3f046fc1	0.5173302
101	0x3e1994db	0.1499819
102	0x3d525cff	0.05135822
103	0x3f4e8185	0.8066638
104	0x3d9ef78b	0.07762059
105	0xbf30dec2	-0.690899
106	0x3f436d83	0.76338977
107	0x3eb64294	0.3559767
108	0xbdf8c8f0	-0.12147701
109	0x3f199715	0.5999616
110	0x3e658ca9	0.22416939
111	0xbe230dab	-0.15923183
112	0xbf24a61f	-0.6431598
113	0x3f32d6a3	0.6985876
114	0xbf518731	-0.8184691
115	0xbe0cf822	-0.1376653
116	0x3e40fdd3	0.18846826
117	0xbe367a15	-0.17820008
118	0xbc2a4257	-0.010391793
119	0xbf12bc33	-0.5731842
120	0xbe96b594	-0.29435408
121	0xbdfd6930	-0.123735785
122	0xbea697aa	-0.32537585
123	0x3f17478e	0.5909356
124	0xbe93e7bb	-0.28887734
125	0x3e917cbd	0.2841548
126	0x3f7a9103	0.9787752
127	0x3ea5c751	0.3237863
128	0xbe3f819d	-0.18701787
129	0xbea397f0	-0.31951857
130	0x3e8dd744	0.27703297
131	0xbe4378a3	-0.19088988
132	0x3df57dcd	0.11986885
133	0x3d6a6c8f	0.057232436
134	0xbe57bc53	-0.21067934
135	0xbeb8c7f2	-0.36090046
136	0x3ea89557	0.32926437
137	0xbf0369b7	-0.51333183
138	0x3e117960	0.14206457
139	0x3e6be1d1	0.23035361
140	0xbe706895	-0.23477395
141	0xbf07aebc	-0.53001
142	0x3c945bca	0.018110175
143	0x3ef9044c	0.4863609
144	0x3e92c486	0.2866556
145	0x3dde812c	0.10864481
146	0x3e8c10b5	0.27356496
147	0x3e43fa9e	0.19138572
148	0xbea910e6	-0.33020705
149	0xbac115b9	-0.0014731205
150	0xbe59bec5	-0.21264179
151	0xbceb2aa1	-0.02870685
152	0xbf224941	-0.63393027
153	0x3f437a99	0.76358944
154	0xbec8ca42	-0.3921681
155	0x3e33da3d	0.1756372
156	0x3e847549	0.2587073
157	0xba9c1894	-0.001190918
158	0xbea1acab	-0.31577048
159	0x3e1d833a	0.1538209
160	0x3e845af8	0.25850654
161	0x3de33401	0.11093903
162	0x3e99bf91	0.30028966
163	0x3ddbc628	0.10731155
164	0x3dc39579	0.09549994
165	0x3eaf6d55	0.342631
166	0x3e42eabe	0.1903486
167	0x3db7c73e	0.08973549
168	0xbf5e9599	-0.8694702
169	0xbdbeea40	-0.093220234
170	0x3e376e82	0.17913249
171	0x3e383fff	0.17993163
172	0x3e6aef50	0.22942853
173	0xbea1a876	-0.31573838
174	0xbf3c837c	-0.7363813
175	0xbeac164a	-0.33610755
176	0x3df0a159	0.117495246
177	0x3ef7accd	0.48374024
178	0x3f52fa48	0.8241315
179	0xbeffad65	-0.49936977
180	0x3f3d4f25	0.7394889
181	0x3eb192ad	0.34682217
182	0x3e533b64	0.20628124
183	0xbe8f2bc8	-0.2796309
184	0xbf2c29dc	-0.6725137
185	0xbee158bb	-0.44013008
186	0x3e0f3fe1	0.13989212
187	0x3e50572b	0.20345752
188	0x3e134e6c	0.14385384
189	0x3ea66df1	0.32505754
190	0xbde3f27d	-0.11130235
191	0xbf333657	-0.7000479
192	0x3ed3b254	0.4134699
193	0x3e8ea131	0.27857354
194	0x3f32dc4b	0.6986739
195	0xbf6612d0	-0.89872456
196	0x3eb92c7a	0.36166745
197	0x3e18bc6f	0.14915632
198	0x3f06381a	0.52429354
199	0xbef3d562	-0.47623736
200	0xbe652dd9	-0.2238077
201	0x3f15c0e3	0.58497447
202	0xbec4ee04	-0.38462842
203	0x3d45949d	0.04823743
204	0xbeab6bfd	-0.33480826
205	0xbd95215f	-0.07281756
206	0xbe2cc934	-0.16873628
207	0xbd5f1e10	-0.05447203
208	0xbe4cfbf0	-0.20017982
209	0x3ec40b7f	0.3829002
210	0xbdcb2909	-0.09919936
211	0x3f5e327f	0.867958
212	0x3e434e2f	0.19072793
213	0xbd962fde	-0.07333349
214	0x3e60888f	0.21927093
215	0x3f4e295f	0.8053188
216	0xbf06b279	-0.5261608
217	0x3eb0f9f2	0.34565693
218	0x3e58469e	0.21120688
219	0xbdf4fffb	-0.11962887
220	0xbe0902ff	-0.13380049
221	0x3ec016ab	0.37517294
222	0x3ecc45c6	0.39896983
223	0xbeba5c4b	-0.3639854
224	0x3d074991	0.033029143
225	0xbf03483e	-0.5128211
226	0xbe2f03bc	-0.17091268
227	0xbf5739b4	-0.84072423
228	0x3d9eb3e6	0.07749157
229	0x3f27d887	0.6556477
230	0xbd3e294e	-0.04642611
231	0x3e024f01	0.1272545
232	0xbe560f00	-0.2090416
233	0xba94e0fd	-0.0011358556
234	0x3d5877a6	0.05284848
235	0x3f04aeec	0.5182941
236	0x3e58c3e9	0.21168484
237	0xbe9e4342	-0.3091069
238	0xbf3081ab	-0.6894786
239	0x3f81389d	1.0095402
240	0x3de18734	0.11012116
241	0x3e09137c	0.13386339
242	0x3d308127	0.04309192
243	0x3e6bfb6e	0.23045132
244	0xbf0fc8be	-0.56165683
245	0x3ec4d976	0.3844716
246	0xbe3ac36b	-0.18238609
247	0x3d520d74	0.05128236
248	0x3f4a25ef	0.7896413
249	0x3e1e4219	0.15454902
250	0xbec2d2a9	-0.38051346
251	0x3cf24b83	0.029577022
252	0xbef1a18d	-0.47193566
253	0x3f2a4e9d	0.66526204
254	0x3c99f393	0.018792903
255	0xbee65bb7	-0.44991848

sequential/batch_normalization/batchnorm/mul_1;sequential/batch_normalization/batchnorm/add_1;sequential/dense/MatMul;sequential/dense/Relu;sequential/dense/BiasAdd i1 [256, 64] scale=0.09793561 zero_point=0
0	0xdf	-3.2318752
1	0x26	3.721553
2	0xde	-3.3298106
3	0x02	0.19587122
4	0x0f	1.4690342
5	0x1c	2.742197
6	0xe8	-2.3504546
7	0x21	3.2318752
8	0x0c	1.1752273
9	0x1a	2.546326
10	0x00	0.0
11	0xf7	-0.8814205
12	0xfc	-0.39174244
13	0x11	1.6649053
14	0x1e	2.9380684
15	0x0e	1.3710985
16	0xf5	-1.0772917
17	0xff	-0.09793561
18	0xe5	-2.6442614
19	0xf3	-1.273163
20	0xe9	-2.2525191
21	0xe2	-2.9380684
22	0xec	-1.9587122
23	0xdc	-3.525682
24	0x08	0.7834849
25	0x22	3.3298106
26	0x15	2.0566478
27	0xf9	-0.68554926
28	0x05	0.48967806
29	0x22	3.3298106
30	0x23	3.4277463
31	0x18	2.3504546
32	0x24	3.525682
33	0xf1	-1.4690342
34	0x17	2.2525191
35	0xfe	-0.19587122
36	0xe7	-2.4483902
37	0x2c	4.309167
38	0xeb	-2.0566478
39	0x1d	2.8401327
40	0x13	1.8607765
41	0x13	1.8607765
42	0xfd	-0.29380682
43	0x14	1.9587122
44	0x33	4.994716
45	0x2e	4.5050383
46	0xef	-1.6649053
47	0x15	2.0566478
48	0x16	2.1545835
49	0x11	1.6649053
50	0x28	3.9174244
51	0xf1	-1.4690342
52	0xf5	-1.0772917
53	0xdb	-3.6236176
54	0x14	1.9587122
55	0x29	4.01536
56	0xf4	-1.1752273
57	0xbd	-6.561686
58	0x13	1.8607765
59	0x18	2.3504546
60	0xec	-1.9587122
61	0x11	1.6649053
62	0xcf	-4.798845
63	0x05	0.48967806
64	0xec	-1.9587122
65	0x01	0.09793561
66	0x13	1.8607765
67	0xe3	-2.8401327
68	0x04	0.39174244
69	0xcc	-5.092652
70	0xea	-2.1545835
71	0x0d	1.273163
72	0xfb	-0.48967806
73	0xdb	-3.6236176
74	0xd0	-4.700909
75	0x03	0.29380682
76	0xfc	-0.39174244
77	0x15	2.0566478
78	0x1d	2.8401327
79	0xfb	-0.48967806
80	0xfc	-0.39174244
81	0xf0	-1.5669698
82	0x09	0.8814205
83	0x0c	1.1752273
84	0x2c	4.309167
85	0x01	0.09793561
86	0xfc	-0.39174244
87	0x0c	1.1752273
88	0x04	0.39174244
89	0x19	2.4483902
90	0xe0	-3.1339395
91	0x13	1.8607765
92	0xd5	-4.211231
93	0xdf	-3.2318752
94	0xdb	-3.6236176
95	0x04	0.39174244
96	0xdc	-3.525682
97	0x32	4.8967805
98	0x10	1.5669698
99	0x18	2.3504546
100	0xf5	-1.0772917
101	0x1f	3.0360038
102	0x0f	1.4690342
103	0x30	4.700909
104	0x1c	2.742197
105	0x18	2.3504546
106	0xc8	-5.484394
107	0x00	0.0
108	0x25	3.6236176
109	0x09	0.8814205
110	0xe8	-2.3504546
111	0x35	5.1905875
112	0xf2	-1.3710985
113	0xd4	-4.309167
114	0xe4	-2.742197
115	0x16	2.1545835
116	0xf8	-0.7834849
117	0xf5	-1.0772917
118	0x46	6.8554926
119	0xe9	-2.2525191
120	0xfa	-0.58761364
121	0x1f	3.0360038
122	0x23	3.4277463
123	0x11	1.6649053
124	0x39	5.5823298
125	0x0b	1.0772917
126	0x17	2.2525191
127	0x08	0.7834849
128	0x09	0.8814205
129	0xf1	-1.4690342
130	0xb7	-7.1492996
131	0x04	0.39174244
132	0x14	1.9587122
133	0x06	0.58761364
134	0x1a	2.546326
135	0x1a	2.546326
136	0xd0	-4.700909
137	0xdf	-3.2318752
138	0xe5	-2.6442614
139	0x1d	2.8401327
140	0xe4	-2.742197
141	0xf5	-1.0772917
142	0xff	-0.09793561
143	0xfc	-0.39174244
144	0xf9	-0.68554926
145	0x0b	1.0772917
146	0xfc	-0.39174244
147	0xf5	-1.0772917
148	0x00	0.0
149	0xea	-2.1545835
150	0x18	2.3504546
151	0x18	2.3504546
152	0xf5	-1.0772917
153	0xf9	-0.68554926
154	0x0f	1.4690342
155	0xfd	-0.29380682
156	0x19	2.4483902
157	0xf8	-0.7834849
158	0x24	3.525682
159	0xef	-1.6649053
160	0xeb	-2.0566478
161	0xd7	-4.01536
162	0xe6	-2.546326
163	0xec	-1.9587122
164	0xe2	-2.9380684
165	0xe9	-2.2525191
166	0x33	4.994716
167	0xf9	-0.68554926
168	0x0e	1.3710985
169	0xf6	-0.9793561
170	0x0d	1.273163
171	0xf5	-1.0772917
172	0xfe	-0.19587122
173	0x14	1.9587122
174	0x22	3.3298106
175	0x04	0.39174244
176	0xff	-0.09793561
177	0xf8	-0.7834849
178	0x3a	5.6802654
179	0x1c	2.742197
180	0x2d	4.4071026
181	0xf4	-1.1752273
182	0x18	2.3504546
183	0x19	2.4483902
184	0xfc	-0.39174244
185	0xcf	-4.798845
186	0x20	3.1339395
187	0x12	1.762841
188	0xe1	-3.0360038
189	0x14	1.9587122
190	0xe6	-2.546326
191	0x03	0.29380682
192	0xfc	-0.39174244
193	0xe7	-2.4483902
194	0x1d	2.8401327
195	0x1b	2.6442614
196	0xfc	-0.39174244
197	0xed	-1.8607765
198	0xec	-1.9587122
199	0x22	3.3298106
200	0x0a	0.9793561
201	0x07	0.68554926
202	0xdc	-3.525682
203	0x06	0.58761364
204	0xee	-1.762841
205	0x03	0.29380682
206	0xd5	-4.211231
207	0x1d	2.8401327
208	0x06	0.58761364
209	0x18	2.3504546
210	0x01	0.09793561
211	0x05	0.48967806
212	0xd5	-4.211231
213	0x06	0.58761364
214	0x01	0.09793561
215	0x05	0.48967806
216	0x13	1.8607765
217	0xfd	-0.29380682
218	0xf9	-0.68554926
219	0x02	0.19587122
220	0xdd	-3.4277463
221	0x01	0.09793561
222	0x1e	2.9380684
223	0x02	0.19587122
224	0x09	0.8814205
225	0x04	0.39174244
226	0x41	6.3658147
227	0x04	0.39174244
228	0xe4	-2.742197
229	0xd5	-4.211231
230	0xf3	-1.273163
231	0xe6	-2.546326
232	0x1e	2.9380684
233	0xde	-3.3298106
234	0xc8	-5.484394
235	0xdb	-3.6236176
236	0xe0	-3.1339395
237	0xfc	-0.39174244
238	0xfd	-0.29380682
239	0x21	3.2318752
240	0xe6	-2.546326
241	0x00	0.0
242	0xc1	-6.1699433
243	0xdd	-3.4277463
244	0x01	0.09793561
245	0xf5	-1.0772917
246	0xd0	-4.700909
247	0xec	-1.9587122
248	0xae	-8.03072
249	0x56	8.422462
250	0x54	8.226591
251	0xe7	-2.4483902
252	0x0d	1.273163
253	0xdb	-3.6236176
254	0xe5	-2.6442614
255	0xf3	-1.273163

sequential/embedding/embedding_lookup i1 [10000, 16] scale=0.003209392 zero_point=0
0	0x13	0.06097845
1	0x10	0.051350273
2	0x06	0.019256353
3	0xfb	-0.01604696
4	0xf2	-0.04493149
5	0x04	0.012837568
6	0x01	0.003209392
7	0xf0	-0.051350273
8	0xf0	-0.051350273
9	0x04	0.012837568
10	0x03	0.009628177
11	0x0a	0.03209392
12	0x02	0.006418784
13	0xfb	-0.01604696
14	0xfa	-0.019256353
15	0xf8	-0.025675137
16	0xfa	-0.019256353
17	0xfd	-0.009628177
18	0x0a	0.03209392
19	0x08	0.025675137
20	0xff	-0.003209392
21	0x02	0.006418784
22	0xf8	-0.025675137
23	0x0c	0.038512707
24	0xf8	-0.025675137
25	0x06	0.019256353
26	0xf3	-0.041722097
27	0xff	-0.003209392
28	0xfe	-0.006418784
29	0xf9	-0.022465745
30	0x01	0.003209392
31	0xfd	-0.009628177
32	0x04	0.012837568
33	0xf3	-0.041722097
34	0xfe	-0.006418784
35	0x0e	0.04493149
36	0x06	0.019256353
37	0x08	0.025675137
38	0xfd	-0.009628177
39	0x0d	0.041722097
40	0x02	0.006418784
41	0xf8	-0.025675137
42	0x04	0.012837568
43	0xf7	-0.028884528
44	0xf7	-0.028884528
45	0x04	0.012837568
46	0x09	0.028884528
47	0xee	-0.057769056
48	0x01	0.003209392
49	0xfe	-0.006418784
50	0xf8	-0.025675137
51	0xf9	-0.022465745
52	0xf0	-0.051350273
53	0xee	-0.057769056
54	0xfb	-0.01604696
55	0x14	0.06418784
56	0x06	0.019256353
57	0x04	0.012837568
58	0x00	0.0
59	0x05	0.01604696
60	0x0f	0.04814088
61	0x06	0.019256353
62	0x03	0.009628177
63	0x00	0.0
64	0xf9	-0.022465745
65	0xf1	-0.04814088
66	0x10	0.051350273
67	0xf0	-0.051350273
68	0x00	0.0
69	0xf2	-0.04493149
70	0x05	0.01604696
71	0x20	0.10270055
72	0x10	0.051350273
73	0xe0	-0.10270055
74	0xf3	-0.041722097
75	0xf6	-0.03209392
76	0x12	0.057769056
77	0xf7	-0.028884528
78	0xf5	-0.035303313
79	0xf8	-0.025675137
80	0xf7	-0.028884528
81	0x2d	0.14442265
82	0xdc	-0.11553811
83	0x12	0.057769056
84	0x1c	0.08986298
85	0x13	0.06097845
86	0x03	0.009628177
87	0xd4	-0.14121325
88	0xdd	-0.11232872
89	0x28	0.12837568
90	0x28	0.12837568
91	0x1b	0.08665358
92	0xff	-0.003209392
93	0x24	0.11553811
94	0x00	0.0
95	0x03	0.009628177
96	0xf4	-0.038512707
97	0xf1	-0.04814088
98	0x06	0.019256353
99	0xf3	-0.041722097
100	0x09	0.028884528
101	0xf5	-0.035303313
102	0x0b	0.035303313
103	0xff	-0.003209392
104	0x12	0.057769056
105	0xfe	-0.006418784
106	0xed	-0.06097845
107	0x02	0.006418784
108	0x0f	0.04814088
109	0xf2	-0.04493149
110	0xe8	-0.07702541
111	0xf4	-0.038512707
112	0xfd	-0.009628177
113	0x08	0.025675137
114	0xf5	-0.035303313
115	0x05	0.01604696
116	0x04	0.012837568
117	0x18	0.07702541
118	0x0f	0.04814088
119	0xef	-0.054559667
120	0x16	0.07060663
121	0x24	0.11553811
122	0xfd	-0.009628177
123	0x02	0.006418784
124	0x16	0.07060663
125	0x0b	0.035303313
126	0xfb	-0.01604696
127	0x19	0.0802348
128	0xfc	-0.012837568
129	0x09	0.028884528
130	0x01	0.003209392
131	0x03	0.009628177
132	0x00	0.0
133	0xff	-0.003209392
134	0x04	0.012837568
135	0x0a	0.03209392
136	0xf6	-0.03209392
137	0x0e	0.04493149
138	0x00	0.0
139	0x0b	0.035303313
140	0x05	0.01604696
141	0x0a	0.03209392
142	0x06	0.019256353
143	0xef	-0.054559667
144	0xf8	-0.025675137
145	0xfd	-0.009628177
146	0x0a	0.03209392
147	0x17	0.07381602
148	0xf9	-0.022465745
149	0x0c	0.038512707
150	0xf6	-0.03209392
151	0xf6	-0.03209392
152	0xf5	-0.035303313
153	0xf1	-0.04814088
154	0xf8	-0.025675137
155	0x02	0.006418784
156	0xf1	-0.04814088
157	0xf8	-0.025675137
158	0x01	0.003209392
159	0xf7	-0.028884528
160	0xfe	-0.006418784
161	0x0e	0.04493149
162	0xfd	-0.009628177
163	0x07	0.022465745
164	0x12	0.057769056
165	0x02	0.006418784
166	0xff	-0.003209392
167	0x02	0.006418784
168	0xfe	-0.006418784
169	0xff	-0.003209392
170	0x0c	0.038512707
171	0x0e	0.04493149
172	0x0f	0.04814088
173	0xff	-0.003209392
174	0x0c	0.038512707
175	0x05	0.01604696
176	0xfd	-0.009628177
177	0x04	0.012837568
178	0xf8	-0.025675137
179	0x16	0.07060663
180	0x06	0.019256353
181	0x1b	0.08665358
182	0x0d	0.041722097
183	0xf3	-0.041722097
184	0x0b	0.035303313
185	0x11	0.054559667
186	0x08	0.025675137
187	0x05	0.01604696
188	0x0b	0.035303313
189	0x0d	0.041722097
190	0x03	0.009628177
191	0x1f	0.09949116
192	0xfe	-0.006418784
193	0x04	0.012837568
194	0xf9	-0.022465745
195	0x00	0.0
196	0xf9	-0.022465745
197	0xf9	-0.022465745
198	0x03	0.009628177
199	0xf6	-0.03209392
200	0x01	0.003209392
201	0x05	0.01604696
202	0x00	0.0
203	0x04	0.012837568
204	0xf9	-0.022465745
205	0x00	0.0
206	0xf8	-0.025675137
207	0xfa	-0.019256353
208	0xfc	-0.012837568
209	0xfc	-0.012837568
210	0x10	0.051350273
211	0x00	0.0
212	0xfb	-0.01604696
213	0xf5	-0.035303313
214	0x06	0.019256353
215	0x0a	0.03209392
216	0xeb	-0.06739724
217	0x0a	0.03209392
218	0xf0	-0.051350273
219	0xe6	-0.08344419
220	0xe7	-0.0802348
221	0x08	0.025675137
222	0x1a	0.08344419
223	0x04	0.012837568
224	0x04	0.012837568
225	0xf7	-0.028884528
226	0x10	0.051350273
227	0xe4	-0.08986298
228	0xea	-0.07060663
229	0xf5	-0.035303313
230	0x01	0.003209392
231	0x08	0.025675137
232	0x0e	0.04493149
233	0xe2	-0.09628176
234	0xfd	-0.009628177
235	0xff	-0.003209392
236	0x1f	0.09949116
237	0xe0	-0.10270055
238	0x0c	0.038512707
239	0x05	0.01604696
240	0x03	0.009628177
241	0xff	-0.003209392
242	0x02	0.006418784
243	0xf0	-0.051350273
244	0xf4	-0.038512707
245	0x09	0.028884528
246	0xf7	-0.028884528
247	0x07	0.022465745
248	0x11	0.054559667
249	0xec	-0.06418784
250	0x01	0.003209392
251	0xe8	-0.07702541
252	0x0d	0.041722097
253	0x1c	0.08986298
254	0xeb	-0.06739724
255	0x15	0.06739724

sequential/dense_1/MatMul i1 [5, 256] scale=0.0033604295 zero_point=0
0	0xa9	-0.2923574
1	0x1d	0.097452454
2	0xc3	-0.2049862
3	0xf8	-0.026883436
4	0x2c	0.1478589
5	0xd0	-0.16130061
6	0xaa	-0.28899693
7	0xa0	-0.32260123
8	0xb0	-0.26883435
9	0xc1	-0.21170706
10	0x0b	0.036964726
11	0xf9	-0.023523007
12	0xe2	-0.10081289
13	0x09	0.030243866
14	0xd9	-0.13105676
15	0x14	0.06720859
16	0xe6	-0.08737117
17	0xe6	-0.08737117
18	0x08	0.026883436
19	0xf6	-0.033604294
20	0xe1	-0.10417332
21	0x17	0.07728988
22	0xe3	-0.097452454
23	0x1f	0.10417332
24	0x0f	0.050406445
25	0x00	0.0
26	0x13	0.06384816
27	0xb5	-0.25203222
28	0x25	0.12433589
29	0x19	0.084010735
30	0xe3	-0.097452454
31	0xb6	-0.24867178
32	0x01	0.0033604295
33	0x31	0.16466105
34	0xd7	-0.13777761
35	0xb5	-0.25203222
36	0xde	-0.1142546
37	0xeb	-0.07056902
38	0x1f	0.10417332
39	0xcd	-0.1713819
40	0xfd	-0.010081288
41	0x31	0.16466105
42	0xe6	-0.08737117
43	0x03	0.010081288
44	0x0a	0.033604294
45	0x26	0.12769632
46	0x1b	0.0907316
47	0x37	0.18482363
48	0xf8	-0.026883436
49	0xa9	-0.2923574
50	0x26	0.12769632
51	0x0c	0.040325154
52	0x26	0.12769632
53	0xa0	-0.32260123
54	0x04	0.013441718
55	0x16	0.07392945
56	0xea	-0.07392945
57	0xed	-0.06384816
58	0xe9	-0.07728988
59	0x11	0.0571273
60	0xc2	-0.20834664
61	0xc7	-0.19154449
62	0xa0	-0.32260123
63	0x21	0.11089417
64	0xdf	-0.11089417
65	0xb9	-0.2385905
66	0xcb	-0.17810276
67	0xf2	-0.047046013
68	0x32	0.16802147
69	0x97	-0.3528451
70	0x02	0.006720859
71	0x05	0.016802147
72	0x02	0.006720859
73	0x2a	0.14113805
74	0x0c	0.040325154
75	0xfa	-0.020162577
76	0xfe	-0.006720859
77	0x15	0.07056902
78	0x17	0.07728988
79	0xb4	-0.25539264
80	0xff	-0.0033604295
81	0xc7	-0.19154449
82	0x33	0.1713819
83	0x1c	0.09409203
84	0xfc	-0.013441718
85	0xf2	-0.047046013
86	0xfb	-0.016802147
87	0xf1	-0.050406445
88	0xe6	-0.08737117
89	0xc1	-0.21170706
90	0xcf	-0.16466105
91	0xd8	-0.13441718
92	0x0a	0.033604294
93	0x2c	0.1478589
94	0xd2	-0.15457976
95	0x02	0.006720859
96	0x09	0.030243866
97	0xa8	-0.2957178
98	0xbd	-0.22514878
99	0x1d	0.097452454
100	0xe7	-0.084010735
101	0xe4	-0.09409203
102	0xf3	-0.043685585
103	0xeb	-0.07056902
104	0xce	-0.16802147
105	0x28	0.13441718
106	0xd4	-0.1478589
107	0xc9	-0.18482363
108	0xe3	-0.097452454
109	0xc2	-0.20834664
110	0xb1	-0.26547393
111	0x0e	0.047046013
112	0xc8	-0.18818405
113	0xac	-0.2822761
114	0xd1	-0.1579402
115	0xd0	-0.16130061
116	0x2f	0.1579402
117	0x06	0.020162577
118	0xf0	-0.053766873
119	0x27	0.13105676
120	0xcd	-0.1713819
121	0x28	0.13441718
122	0xd7	-0.13777761
123	0x2f	0.1579402
124	0x18	0.08065031
125	0xea	-0.07392945
126	0xb5	-0.25203222
127	0xc1	-0.21170706
128	0x2d	0.15121932
129	0x12	0.060487732
130	0x22	0.1142546
131	0x22	0.1142546
132	0x19	0.084010735
133	0xf9	-0.023523007
134	0x81	-0.42677456
135	0x02	0.006720859
136	0xe1	-0.10417332
137	0x18	0.08065031
138	0xac	-0.2822761
139	0xf4	-0.040325154
140	0xbe	-0.22178835
141	0x0b	0.036964726
142	0x19	0.084010735
143	0xf9	-0.023523007
144	0xb3	-0.25875306
145	0x1c	0.09409203
146	0x18	0.08065031
147	0x22	0.1142546
148	0x0f	0.050406445
149	0x07	0.023523007
150	0x08	0.026883436
151	0xd2	-0.15457976
152	0xc6	-0.19490491
153	0xb9	-0.2385905
154	0x32	0.16802147
155	0x8a	-0.3965307
156	0x00	0.0
157	0xe8	-0.08065031
158	0xd7	-0.13777761
159	0xa5	-0.3057991
160	0x13	0.06384816
161	0x16	0.07392945
162	0x1a	0.08737117
163	0xc2	-0.20834664
164	0xc0	-0.21506749
165	0xf6	-0.033604294
166	0xf3	-0.043685585
167	0xe3	-0.097452454
168	0x2f	0.1579402
169	0x83	-0.4200537
170	0xd5	-0.14449847
171	0xf0	-0.053766873
172	0xdf	-0.11089417
173	0xe8	-0.08065031
174	0xb4	-0.25539264
175	0xf0	-0.053766873
176	0xe7	-0.084010735
177	0xbf	-0.21842793
178	0xc6	-0.19490491
179	0x01	0.0033604295
180	0x04	0.013441718
181	0xa7	-0.29907823
182	0x24	0.120975465
183	0xea	-0.07392945
184	0x27	0.13105676
185	0xe9	-0.07728988
186	0xd4	-0.1478589
187	0x1a	0.08737117
188	0xba	-0.23523007
189	0xe5	-0.0907316
190	0x10	0.053766873
191	0x24	0.120975465
192	0xa9	-0.2923574
193	0x2b	0.14449847
194	0x9c	-0.33604294
195	0x88	-0.40325156
196	0xdd	-0.11761504
197	0x0c	0.040325154
198	0xc1	-0.21170706
199	0x07	0.023523007
200	0x19	0.084010735
201	0x97	-0.3528451
202	0xab	-0.2856365
203	0x9f	-0.32596168
204	0xa4	-0.30915952
205	0x26	0.12769632
206	0x0a	0.033604294
207	0x31	0.16466105
208	0x2e	0.15457976
209	0xfa	-0.020162577
210	0x18	0.08065031
211	0xc6	-0.19490491
212	0x1f	0.10417332
213	0x06	0.020162577
214	0xd7	-0.13777761
215	0xba	-0.23523007
216	0x2b	0.14449847
217	0x09	0.030243866
218	0xd4	-0.1478589
219	0xe0	-0.107533745
220	0x0f	0.050406445
221	0xff	-0.0033604295
222	0xe4	-0.09409203
223	0x25	0.12433589
224	0xeb	-0.07056902
225	0x0a	0.033604294
226	0xa7	-0.29907823
227	0xed	-0.06384816
228	0xa6	-0.30243865
229	0xca	-0.1814632
230	0xde	-0.1142546
231	0xdc	-0.120975465
232	0x1c	0.09409203
233	0xfd	-0.010081288
234	0xf4	-0.040325154
235	0xb6	-0.24867178
236	0x34	0.17474234
237	0x12	0.060487732
238	0xb3	-0.25875306
239	0xdb	-0.12433589
240	0x1c	0.09409203
241	0xc1	-0.21170706
242	0x1f	0.10417332
243	0xfa	-0.020162577
244	0xcb	-0.17810276
245	0x32	0.16802147
246	0xd2	-0.15457976
247	0xf1	-0.050406445
248	0xb4	-0.25539264
249	0x2f	0.1579402
250	0xb7	-0.24531135
251	0xe0	-0.107533745
252	0x28	0.13441718
253	0xbe	-0.22178835
254	0x3d	0.2049862
255	0xba	-0.23523007

sequential/bidirectional/backward_lstm/Read_2/ReadVariableOp1 f4 [64]
0	0x3dd8851d	0.10572264
1	0x3e04f2e3	0.12983279
2	0x3d4c4f3c	0.04988025
3	0x3cf016b8	0.029307708
4	0x3e2a3c8a	0.16624656
5	0xbbaed1be	-0.005335062
6	0x3d2f56a3	0.042807233
7	0x3d8aabe6	0.06771068
8	0x3cf94186	0.030426752
9	0x3d93c635	0.07215539
10	0x3ca783dc	0.020448618
11	0x3db160ae	0.08661018
12	0x3d370242	0.044679888
13	0x3d70fb3e	0.058833353
14	0xbc5a356c	-0.013318401
15	0x3e3e2439	0.18568505
16	0x3f817f59	1.0116988
17	0x3f7f4104	0.9970858
18	0x3f81c503	1.0138248
19	0x3f8435f7	1.0328969
20	0x3f89ecf3	1.0775436
21	0x3f78959e	0.971033
22	0x3f8990a4	1.0747266
23	0x3f87cf5e	1.0610158
24	0x3f7c0e64	0.9845946
25	0x3f88a6c8	1.0675898
26	0x3f761bdf	0.9613628
27	0x3f8e6c5e	1.1126821
28	0x3f8283c4	1.0196462
29	0x3f75f9e2	0.96084416
30	0x3f83516f	1.0259227
31	0x3f8b39f8	1.0877066
32	0x3baa9718	0.005206
33	0xba7cae65	-0.0009639024
34	0x3b89ce6c	0.0042055156
35	0x3bc07cab	0.0058742366
36	0xbbe44e49	-0.00696734
37	0x3bc38a52	0.005967417
38	0x3c05b0f0	0.008159861
39	0xbc03cea5	-0.008044873
40	0x3b56ae5b	0.0032757733
41	0x3b5339d3	0.003223051
42	0xbc00d369	-0.007862904
43	0x3b692f44	0.003558115
44	0x3c1fd81a	0.0097561125
45	0x3c0de6f6	0.008661022
46	0xbc257426	-0.010098493
47	0xbaa21bc7	-0.0012367897
48	0x3dcde045	0.10052542
49	0x3e0434f8	0.12910831
50	0x3d5d4951	0.054024998
51	0x3cf3bc75	0.02975295
52	0x3e21d028	0.15802062
53	0xbbb41002	-0.0054950723
54	0x3d2d94ba	0.042378165
55	0x3d8e625b	0.069523536
56	0x3cdec1c3	0.027192002
57	0x3d99bd76	0.0750684
58	0x3c9f3181	0.019432785
59	0x3dafbb71	0.085806735
60	0x3d38adef	0.04508775
61	0x3d851d20	0.06499696
62	0xbc7774ca	-0.015103528
63	0x3e3e2567	0.18568955

while/MatMul_11 i1 [64, 16] scale=0.0041700853 zero_point=0
0	0xe2	-0.12510256
1	0xdb	-0.15429315
2	0xfb	-0.020850427
3	0xf0	-0.066721365
4	0xcd	-0.21267435
5	0x55	0.35445726
6	0x1e	0.12510256
7	0xff	-0.0041700853
8	0x02	0.008340171
9	0x3c	0.25020513
10	0x18	0.10008205
11	0xf0	-0.066721365
12	0x0a	0.041700855
13	0xf8	-0.033360682
14	0x2d	0.18765384
15	0x1d	0.120932475
16	0xe7	-0.10425213
17	0xf4	-0.050041024
18	0xbd	-0.27939573
19	0xfe	-0.008340171
20	0xf8	-0.033360682
21	0x23	0.14595298
22	0xe6	-0.10842222
23	0xfb	-0.020850427
24	0xe9	-0.095911965
25	0x1f	0.12927264
26	0x2f	0.195994
27	0x35	0.22101451
28	0x08	0.033360682
29	0x24	0.15012307
30	0xe2	-0.12510256
31	0x18	0.10008205
32	0x04	0.016680341
33	0xcf	-0.20433418
34	0xf2	-0.058381192
35	0x05	0.020850427
36	0xf3	-0.05421111
37	0xfd	-0.012510256
38	0x44	0.2835658
39	0x1e	0.12510256
40	0x24	0.15012307
41	0x11	0.07089145
42	0xfc	-0.016680341
43	0x0b	0.045870937
44	0xfa	-0.025020512
45	0xfe	-0.008340171
46	0xec	-0.08340171
47	0x19	0.10425213
48	0xf6	-0.041700855
49	0x28	0.16680342
50	0xbf	-0.27105555
51	0x29	0.1709735
52	0xe5	-0.1125923
53	0x08	0.033360682
54	0x13	0.07923162
55	0x3c	0.25020513
56	0x31	0.20433418
57	0x31	0.20433418
58	0x26	0.15846324
59	0xd4	-0.18348375
60	0xfb	-0.020850427
61	0x40	0.26688546
62	0xe8	-0.10008205
63	0xda	-0.15846324
64	0xd6	-0.17514358
65	0xce	-0.20850426
66	0x46	0.29190597
67	0xd7	-0.1709735
68	0x14	0.08340171
69	0xeb	-0.08757179
70	0xfb	-0.020850427
71	0xce	-0.20850426
72	0x06	0.025020512
73	0x45	0.28773588
74	0x04	0.016680341
75	0x19	0.10425213
76	0xcd	-0.21267435
77	0x02	0.008340171
78	0xed	-0.07923162
79	0x1f	0.12927264
80	0x2e	0.19182393
81	0x13	0.07923162
82	0x33	0.21267435
83	0xf1	-0.06255128
84	0x6a	0.44202903
85	0x1b	0.1125923
86	0x3f	0.26271537
87	0xff	-0.0041700853
88	0x07	0.029190596
89	0x56	0.35862735
90	0xde	-0.1417829
91	0x4b	0.3127564
92	0xe1	-0.12927264
93	0xc2	-0.25854528
94	0xd4	-0.18348375
95	0x59	0.3711376
96	0x00	0.0
97	0x1e	0.12510256
98	0x05	0.020850427
99	0xe7	-0.10425213
100	0x2b	0.17931367
101	0xf3	-0.05421111
102	0x9e	-0.40866837
103	0x01	0.0041700853
104	0x28	0.16680342
105	0x02	0.008340171
106	0x0c	0.050041024
107	0xd1	-0.195994
108	0x35	0.22101451
109	0x1d	0.120932475
110	0xe9	-0.095911965
111	0x10	0.066721365
112	0xf6	-0.041700855
113	0x39	0.23769486
114	0x3b	0.24603504
115	0x05	0.020850427
116	0x24	0.15012307
117	0xef	-0.07089145
118	0x0d	0.05421111
119	0x18	0.10008205
120	0xed	-0.07923162
121	0x1e	0.12510256
122	0xe1	-0.12927264
123	0x21	0.13761282
124	0xac	-0.35028717
125	0x05	0.020850427
126	0xcb	-0.22101451
127	0x0e	0.058381192
128	0x1e	0.12510256
129	0x0f	0.06255128
130	0x39	0.23769486
131	0xeb	-0.08757179
132	0x07	0.029190596
133	0xf5	-0.045870937
134	0x1a	0.10842222
135	0x15	0.08757179
136	0x10	0.066721365
137	0xdb	-0.15429315
138	0x21	0.13761282
139	0xe1	-0.12927264
140	0x08	0.033360682
141	0x49	0.30441624
142	0xdd	-0.14595298
143	0xf2	-0.058381192
144	0x40	0.26688546
145	0xf6	-0.041700855
146	0xc3	-0.2543752
147	0xe3	-0.120932475
148	0x0c	0.050041024
149	0xd5	-0.17931367
150	0xbc	-0.2835658
151	0x25	0.15429315
152	0xe5	-0.1125923
153	0x29	0.1709735
154	0x1a	0.10842222
155	0x12	0.07506154
156	0x01	0.0041700853
157	0x5a	0.37530768
158	0xfa	-0.025020512
159	0x33	0.21267435
160	0xc1	-0.26271537
161	0x02	0.008340171
162	0xc9	-0.2293547
163	0x1e	0.12510256
164	0xfa	-0.025020512
165	0x20	0.13344273
166	0x1f	0.12927264
167	0x25	0.15429315
168	0x10	0.066721365
169	0x15	0.08757179
170	0x1b	0.1125923
171	0xea	-0.091741875
172	0x2d	0.18765384
173	0xbe	-0.27522564
174	0x10	0.066721365
175	0x1f	0.12927264
176	0x3d	0.2543752
177	0xe0	-0.13344273
178	0xd1	-0.195994
179	0x03	0.012510256
180	0xb0	-0.33360684
181	0xf3	-0.05421111
182	0xf5	-0.045870937
183	0xda	-0.15846324
184	0x2c	0.18348375
185	0x08	0.033360682
186	0x23	0.14595298
187	0x27	0.16263333
188	0x0e	0.058381192
189	0x29	0.1709735
190	0xed	-0.07923162
191	0xfb	-0.020850427
192	0x10	0.066721365
193	0xef	-0.07089145
194	0x19	0.10425213
195	0xf0	-0.066721365
196	0xe3	-0.120932475
197	0x0e	0.058381192
198	0x10	0.066721365
199	0xd0	-0.2001641
200	0xfc	-0.016680341
201	0x0b	0.045870937
202	0x04	0.016680341
203	0x48	0.30024615
204	0xd3	-0.18765384
205	0x6e	0.4587094
206	0xec	-0.08340171
207	0x29	0.1709735
208	0xf9	-0.029190596
209	0x36	0.2251846
210	0x2b	0.17931367
211	0xc5	-0.24603504
212	0x4c	0.31692648
213	0xea	-0.091741875
214	0x40	0.26688546
215	0x31	0.20433418
216	0x38	0.23352477
217	0x3d	0.2543752
218	0x0d	0.05421111
219	0x24	0.15012307
220	0x12	0.07506154
221	0x03	0.012510256
222	0xfd	-0.012510256
223	0x18	0.10008205
224	0xb5	-0.3127564
225	0x11	0.07089145
226	0x0d	0.05421111
227	0xc7	-0.23769486
228	0x15	0.08757179
229	0xe9	-0.095911965
230	0xf9	-0.029190596
231	0xfc	-0.016680341
232	0xde	-0.1417829
233	0xee	-0.07506154
234	0x0a	0.041700855
235	0x07	0.029190596
236	0x0f	0.06255128
237	0x24	0.15012307
238	0x35	0.22101451
239	0x3a	0.24186495
240	0xfe	-0.008340171
241	0xbd	-0.27939573
242	0x21	0.13761282
243	0xf9	-0.029190596
244	0xa0	-0.4003282
245	0xfa	-0.025020512
246	0xbb	-0.28773588
247	0x18	0.10008205
248	0x17	0.095911965
249	0xf7	-0.03753077
250	0xff	-0.0041700853
251	0x0e	0.058381192
252	0x23	0.14595298
253	0xe0	-0.13344273
254	0xf4	-0.050041024
255	0xe1	-0.12927264

while/MatMul i1 [64, 16] scale=0.0049412767 zero_point=0
0	0xf0	-0.07906043
1	0x1d	0.14329703
2	0x08	0.039530214
3	0xd5	-0.2124749
4	0xd3	-0.22235745
5	0x2f	0.23224
6	0x07	0.034588937
7	0x36	0.26682895
8	0x32	0.24706383
9	0x22	0.16800341
10	0xd7	-0.20259234
11	0xcc	-0.25694638
12	0xf0	-0.07906043
13	0x1f	0.15317959
14	0xbf	-0.321183
15	0xff	-0.0049412767
16	0xc5	-0.29153532
17	0xfe	-0.0098825535
18	0xca	-0.26682895
19	0x03	0.01482383
20	0xf6	-0.04941277
21	0x39	0.28165278
22	0xc4	-0.2964766
23	0xdd	-0.17294468
24	0x02	0.0098825535
25	0x2d	0.22235745
26	0xc9	-0.2717702
27	0x01	0.0049412767
28	0x01	0.0049412767
29	0x3d	0.3014179
30	0xf6	-0.04941277
31	0x09	0.04447149
32	0xea	-0.10870809
33	0xbb	-0.3409481
34	0x05	0.024706384
35	0xbd	-0.33106554
36	0x15	0.103766814
37	0xc0	-0.3162417
38	0xd3	-0.22235745
39	0x07	0.034588937
40	0x32	0.24706383
41	0xbc	-0.33600682
42	0xf8	-0.039530214
43	0xce	-0.24706383
44	0xbb	-0.3409481
45	0xda	-0.18776852
46	0xdc	-0.17788596
47	0xcc	-0.25694638
48	0xed	-0.09388426
49	0x27	0.19270979
50	0xee	-0.08894298
51	0x3a	0.28659406
52	0x17	0.11364937
53	0xfa	-0.02964766
54	0xee	-0.08894298
55	0xda	-0.18776852
56	0xf9	-0.034588937
57	0xeb	-0.103766814
58	0x30	0.23718128
59	0xea	-0.10870809
60	0xf3	-0.064236596
61	0x43	0.33106554
62	0xfb	-0.024706384
63	0xc7	-0.28165278
64	0x07	0.034588937
65	0x07	0.034588937
66	0xcf	-0.24212256
67	0xd7	-0.20259234
68	0xf0	-0.07906043
69	0xda	-0.18776852
70	0xf0	-0.07906043
71	0xf0	-0.07906043
72	0xdd	-0.17294468
73	0xe8	-0.11859064
74	0x2d	0.22235745
75	0xc1	-0.31130043
76	0xf1	-0.07411915
77	0xe9	-0.11364937
78	0xe2	-0.1482383
79	0x1f	0.15317959
80	0xed	-0.09388426
81	0xa9	-0.42989108
82	0xe2	-0.1482383
83	0xd9	-0.19270979
84	0x0e	0.06917787
85	0xdd	-0.17294468
86	0xf5	-0.054354046
87	0x14	0.09882554
88	0xdb	-0.18282723
89	0xdd	-0.17294468
90	0x18	0.11859064
91	0x11	0.084001705
92	0x07	0.034588937
93	0x0c	0.05929532
94	0x05	0.024706384
95	0x8a	-0.58307064
96	0xfe	-0.0098825535
97	0x1e	0.1482383
98	0xda	-0.18776852
99	0xf0	-0.07906043
100	0x24	0.17788596
101	0xff	-0.0049412767
102	0xe9	-0.11364937
103	0xe6	-0.12847319
104	0x48	0.35577193
105	0xe0	-0.15812086
106	0xd4	-0.21741618
107	0x1a	0.12847319
108	0xba	-0.34588936
109	0xfe	-0.0098825535
110	0xea	-0.10870809
111	0x1c	0.13835575
112	0xc6	-0.28659406
113	0x01	0.0049412767
114	0xfa	-0.02964766
115	0x0a	0.04941277
116	0xe4	-0.13835575
117	0xf4	-0.05929532
118	0x0d	0.064236596
119	0x25	0.18282723
120	0x33	0.2520051
121	0xe9	-0.11364937
122	0xcf	-0.24212256
123	0xde	-0.16800341
124	0xb3	-0.38047832
125	0x06	0.02964766
126	0xf0	-0.07906043
127	0xc3	-0.3014179
128	0xf1	-0.07411915
129	0xed	-0.09388426
130	0x43	0.33106554
131	0xd2	-0.22729874
132	0xca	-0.26682895
133	0xef	-0.084001705
134	0xf2	-0.06917787
135	0xe0	-0.15812086
136	0xfc	-0.019765107
137	0xb5	-0.37059575
138	0x04	0.019765107
139	0xf7	-0.04447149
140	0xda	-0.18776852
141	0xfc	-0.019765107
142	0x19	0.123531915
143	0x06	0.02964766
144	0xfb	-0.024706384
145	0xf3	-0.064236596
146	0xe1	-0.15317959
147	0x28	0.19765107
148	0xd0	-0.23718128
149	0xc4	-0.2964766
150	0xde	-0.16800341
151	0xf5	-0.054354046
152	0x24	0.17788596
153	0xba	-0.34588936
154	0x00	0.0
155	0xc6	-0.28659406
156	0x18	0.11859064
157	0xe3	-0.14329703
158	0x04	0.019765107
159	0xf2	-0.06917787
160	0x27	0.19270979
161	0x2d	0.22235745
162	0x12	0.08894298
163	0xf7	-0.04447149
164	0xd5	-0.2124749
165	0xe6	-0.12847319
166	0x0f	0.07411915
167	0xe1	-0.15317959
168	0xe0	-0.15812086
169	0xff	-0.0049412767
170	0x2f	0.23224
171	0xe9	-0.11364937
172	0x2d	0.22235745
173	0x18	0.11859064
174	0xf8	-0.039530214
175	0x1a	0.12847319
176	0xe4	-0.13835575
177	0xe1	-0.15317959
178	0x3e	0.30635917
179	0x29	0.20259234
180	0x0a	0.04941277
181	0xf7	-0.04447149
182	0x1d	0.14329703
183	0x3d	0.3014179
184	0xe3	-0.14329703
185	0xfa	-0.02964766
186	0xf9	-0.034588937
187	0x1f	0.15317959
188	0xe8	-0.11859064
189	0x0f	0.07411915
190	0xe5	-0.13341448
191	0x22	0.16800341
192	0x1a	0.12847319
193	0x1b	0.13341448
194	0xd2	-0.22729874
195	0xc9	-0.2717702
196	0x2f	0.23224
197	0xf4	-0.05929532
198	0x39	0.28165278
199	0x05	0.024706384
200	0xe9	-0.11364937
201	0xf1	-0.07411915
202	0x2b	0.2124749
203	0x3a	0.28659406
204	0x2b	0.2124749
205	0xf8	-0.039530214
206	0x2c	0.21741618
207	0x16	0.10870809
208	0x4e	0.38541958
209	0xae	-0.4051847
210	0xd3	-0.22235745
211	0x12	0.08894298
212	0xd3	-0.22235745
213	0xf8	-0.039530214
214	0xa0	-0.47436255
215	0x1d	0.14329703
216	0xe0	-0.15812086
217	0x11	0.084001705
218	0x12	0.08894298
219	0x2a	0.20753363
220	0xa9	-0.42989108
221	0xbc	-0.33600682
222	0x04	0.019765107
223	0xb3	-0.38047832
224	0x36	0.26682895
225	0xfe	-0.0098825535
226	0x0d	0.064236596
227	0xe9	-0.11364937
228	0xfa	-0.02964766
229	0xc9	-0.2717702
230	0x09	0.04447149
231	0xeb	-0.103766814
232	0xe4	-0.13835575
233	0x1e	0.1482383
234	0xea	-0.10870809
235	0xe0	-0.15812086
236	0xf4	-0.05929532
237	0x29	0.20259234
238	0xd4	-0.21741618
239	0x1b	0.13341448
240	0xbd	-0.33106554
241	0x18	0.11859064
242	0xcd	-0.2520051
243	0xf2	-0.06917787
244	0xf0	-0.07906043
245	0x2e	0.22729874
246	0x3b	0.29153532
247	0x1c	0.13835575
248	0xea	-0.10870809
249	0xe8	-0.11859064
250	0x44	0.33600682
251	0xf6	-0.04941277
252	0xf4	-0.05929532
253	0x07	0.034588937
254	0x2c	0.21741618
255	0xfd	-0.01482383

sequential/bidirectional/forward_lstm/Read_2/ReadVariableOp1 f4 [64]
0	0x3c064d27	0.0081971055
1	0xbd74a98a	-0.059731998
2	0x3c5dcc4e	0.01353748
3	0xbd6273a6	-0.055286072
4	0xbcebdb15	-0.02879099
5	0xbd81dbf8	-0.06340784
6	0x3ce997bd	0.028514737
7	0x3da87960	0.082262754
8	0xbd03fc9a	-0.03222332
9	0xbc99a888	-0.01875712
10	0x3c88eefd	0.016715521
11	0x3c5334c3	0.012890997
12	0x3d5aed93	0.053449225
13	0xbc7d7526	-0.015469825
14	0xbc8019e4	-0.015637346
15	0x3d3ddb70	0.04635185
16	0x3f87a4a1	1.0597116
17	0x3f78e1e9	0.9721971
18	0x3f8a7a1a	1.0818512
19	0x3f8b20dd	1.0869404
20	0x3f87746d	1.0582405
21	0x3f7c1cc1	0.98481375
22	0x3f7c2aa5	0.9850257
23	0x3f8eb3b1	1.1148587
24	0x3f8200c9	1.015649
25	0x3f8852f6	1.0650318
26	0x3f8a5bb2	1.0809233
27	0x3f896961	1.0735284
28	0x3f8fc06f	1.1230601
29	0x3f860efd	1.0473324
30	0x3f84ee8c	1.0385299
31	0x3f8e31ce	1.1108949
32	0xbb078c3d	-0.0020682954
33	0xbb919bf1	-0.0044436385
34	0x3a905c41	0.0011013822
35	0xbb90afde	-0.0044154963
36	0x3b3a15ac	0.0028394265
37	0x3b9852a5	0.004648524
38	0xbc2a28ad	-0.010385674
39	0xbb0d2b17	-0.0021540576
40	0xbb892de3	-0.0041863783
41	0x3c13a63e	0.009011803
42	0xbb73dbe2	-0.0037209918
43	0xbc30a6c2	-0.010781946
44	0xbc167e8f	-0.009185447
45	0xbbd587d2	-0.006516435
46	0xbba00691	-0.0048835953
47	0x3c4da25f	0.012550919
48	0x38b59280	8.65804e-05
49	0xbd7a0a46	-0.061044954
50	0x3c8f4b42	0.01749194
51	0xbd652fa7	-0.055953648
52	0xbcef47c8	-0.029209033
53	0xbd862548	-0.065500796
54	0x3cfcef0c	0.030875705
55	0x3d979a50	0.0740248
56	0xbd07e41a	-0.03317652
57	0xbc81add9	-0.015829967
58	0x3c41add1	0.011821226
59	0x3c531ad6	0.012884816
60	0x3d34da71	0.044153634
61	0xbc8a7fe7	-0.016906692
62	0xbc7dbd08	-0.015486963
63	0x3d0ed3d2	0.034869976
